t12_r4_i110_n3_h64_e1000_l0.01.pth (torch, 743048 bytes, 25 tensors)

encoder_lstm.weight_ih_l0 f4 [256, 5]
0	0xbce41b0b	-0.027844926
1	0x3db4c295	0.08826176
2	0x3da04e63	0.07827451
3	0xbdde4e92	-0.1085483
4	0x3cdf3662	0.027247611
5	0xbdd26a9f	-0.102742426
6	0xbde9d984	-0.11418441
7	0xbd50ef08	-0.051009208
8	0x3dfe29d3	0.12410321
9	0x3c97876d	0.018497193
10	0xbdc99f69	-0.09844858
11	0xbe202e8f	-0.1564276
12	0x3c1ce59f	0.00957623
13	0x3ae18ecf	0.0017208698
14	0x3ed3d1c9	0.4137099
15	0x3dd68225	0.10474042
16	0x3d281227	0.041032936
17	0xbd59ec90	-0.05320412
18	0x3d79cc80	0.060986042
19	0x3d59bbd3	0.05315764
20	0xbc66602b	-0.014061014
21	0xbe22f783	-0.1591473
22	0xbe174abc	-0.14774603
23	0x3cf5c1ac	0.029999577
24	0x3d222400	0.039585114
25	0xbd7dcedf	-0.061964866
26	0xbdf147fe	-0.117813095
27	0xbd3b5f4b	-0.045745175
28	0xbdf87073	-0.12130823
29	0x3caafd86	0.020872843
30	0xbded4f17	-0.11587351
31	0x3e61cfa8	0.22051871
32	0x3c2b977b	0.0104731275
33	0xbe193b00	-0.14963913
34	0xbdd4a280	-0.10382557
35	0x3df9e699	0.12202186
36	0xbcf1c077	-0.02951072
37	0x3d020b5e	0.03174912
38	0x3ce28679	0.027652012
39	0x3dc1f5fc	0.09470746
40	0xbd75340c	-0.05986409
41	0xbddfd3c2	-0.109290615
42	0xbcacd2a3	-0.021096533
43	0x3cf3ec7b	0.029775849
44	0x3dfa95c6	0.12235598
45	0xba2c98c3	-0.00065840426
46	0x3d11fdb6	0.03564235
47	0xbd48340a	-0.048877753
48	0x3cb5c1a3	0.02218706
49	0xbdd83c31	-0.105583556
50	0x3df63ed0	0.12023699
51	0x3d66fb55	0.056392033
52	0x39fc3057	0.00048101202
53	0x3d7ba74a	0.061438836
54	0xbd6fe975	-0.05857225
55	0x3ca3408e	0.019928243
56	0x3d0f93db	0.035053115
57	0x3da46e22	0.08028819
58	0xbde67e52	-0.112545624
59	0x3f35e193	0.71047324
60	0xbd45edf4	-0.048322633
61	0xbc261511	-0.010136859
62	0xbcd6aa54	-0.026204266
63	0x3d9de099	0.07708854
64	0x3e65b573	0.22432499
65	0xbdac54f5	-0.08414642
66	0xbda771cd	-0.08176003
67	0x3d7c6743	0.061621916
68	0x3c01d5b7	0.007924489
69	0x3dc2836b	0.09497722
70	0xbdbf901d	-0.09353659
71	0xbe0c68e1	-0.13711883
72	0xbdbfc8b6	-0.093644544
73	0x3d0ed5e6	0.03487196
74	0x3d38fbd4	0.045162037
75	0xbe107e98	-0.14110792
76	0xbe05b32d	-0.13056631
77	0xbd394e0e	-0.045240454
78	0xbd864342	-0.06555797
79	0xbd0f5d26	-0.035000943
80	0x3dfb4a71	0.12270058
81	0xbda74fde	-0.0816953
82	0xbdc14810	-0.09437573
83	0x3dea81f4	0.11450568
84	0xbd48472d	-0.048896004
85	0xbcf65da0	-0.03007394
86	0xbd5fee2a	-0.05467049
87	0xbdb6450c	-0.088998884
88	0xbd2a2a0a	-0.041543998
89	0xbc02fcfc	-0.0079948865
90	0x3e32bde2	0.17455247
91	0x3e4ebcdb	0.2018923
92	0x3d3923eb	0.04520027
93	0xbd02f525	-0.03197207
94	0x3d7bea71	0.061502878
95	0x3d678cfb	0.056530934
96	0xb97ab4f5	-0.0002390927
97	0x3dc266ec	0.09492287
98	0x3dfd2dfa	0.12362285
99	0x3d89235c	0.066961974
100	0x3c284109	0.010269412
101	0x3d47fb3a	0.048823573
102	0xbdb713d5	-0.089393295
103	0xbc6e7884	-0.0145551
104	0xbd671753	-0.056418728
105	0x3d5ccd07	0.053906467
106	0xbdb3d878	-0.087815225
107	0xbdd6b984	-0.10484603
108	0xbccb8a3f	-0.024846194
109	0xbc9c1e2f	-0.019057361
110	0xbd378c5d	-0.044811595
111	0xbdd74550	-0.10511267
112	0x3d8bbe99	0.06823463
113	0x3d90f883	0.0707865
114	0xbdf626e9	-0.1201914
115	0x3db52c9b	0.088463984
116	0x3c7f3d43	0.015578571
117	0xbb1f7716	-0.0024332455
118	0xbdd194a8	-0.10233432
119	0xbd810594	-0.06299892
120	0xbc8313a0	-0.016000569
121	0x3b52dc7a	0.0032174871
122	0x3cfc4635	0.030795196
123	0xbca57eb4	-0.020202018
124	0x3dbe4fda	0.09292574
125	0x3dc6af07	0.097013526
126	0xbdefc283	-0.11707022
127	0x3df0a728	0.117506325
128	0xbc6b384a	-0.014356682
129	0x3ce332c4	0.027734168
130	0xbda425e1	-0.08015037
131	0xbe3b9ca7	-0.18321477
132	0x3d42029b	0.047365766
133	0x3be4c2ff	0.006981253
134	0xbd5ddeaf	-0.054167446
135	0x3cf9def4	0.03050182
136	0x3e47b2eb	0.19501846
137	0x3dd7f554	0.105448395
138	0xbd3e2cbd	-0.046429384
139	0xbd917bab	-0.07103666
140	0x3cccce1d	0.025000626
141	0x3cfbcfa3	0.030738657
142	0x3dbcc515	0.09217278
143	0xbb2bbaa6	-0.002620378
144	0xbd8ec90f	-0.06971943
145	0x3c68c4fe	0.014207123
146	0xbdab9f49	-0.083799906
147	0xb9440a8c	-0.00018695946
148	0x3d0be151	0.034150425
149	0x3bd9d6d3	0.0066479235
150	0xbb822c69	-0.0039725793
151	0xbcd6b7ac	-0.026210628
152	0x3e01064a	0.12600055
153	0xbcf17f75	-0.029479722
154	0x3cce7c32	0.025205705
155	0xbc586410	-0.0132074505
156	0xba8d976a	-0.0010802571
157	0x3e053975	0.130102
158	0x3d8cace3	0.06868913
159	0xbd46e039	-0.04855368
160	0xbda724de	-0.08161329
161	0x3d932f16	0.07186715
162	0xbe263831	-0.16232373
163	0xbde86cae	-0.11348854
164	0x3ee3aaa4	0.44466126
165	0xbe047786	-0.1293622
166	0xbe9340bd	-0.2876033
167	0x3d674a2a	0.056467213
168	0xbcd57bbb	-0.026059976
169	0x3edd61ad	0.43238583
170	0xbd151b38	-0.03640291
171	0x3dd51ca9	0.10405857
172	0xbdb336ea	-0.087507084
173	0x3e12967d	0.14315219
174	0x3eea4356	0.45754498
175	0x3d07f5e8	0.0331935
176	0xbd86b3ed	-0.06577287
177	0xbc68dc0e	-0.014212621
178	0xbd388981	-0.04505301
179	0x3f0c84d8	0.54890203
180	0x3d1bef51	0.038070027
181	0xbd34aae4	-0.044108286
182	0xbda0ffe6	-0.07861309
183	0xbdf429a9	-0.119220085
184	0xbe4069ae	-0.18790314
185	0xbd5a376c	-0.05327551
186	0xbbb08d2b	-0.0053879223
187	0x3d89d33d	0.06729744
188	0xbdf3fc02	-0.11913301
189	0x3e3ed5e1	0.18636276
190	0x3cdb9fde	0.026809629
191	0xbe04ac8c	-0.12956446
192	0x3a92c629	0.0011197972
193	0xbd81e77a	-0.06342979
194	0x3e0dff13	0.13866834
195	0x3d9776c7	0.07395702
196	0xbddd2b22	-0.107992426
197	0xbd5c72ad	-0.0538203
198	0x3d8a8760	0.06764102
199	0x3eb12a7b	0.34602723
200	0x3dae929c	0.08524057
201	0x3e6d7118	0.23187673
202	0x3dd2c04e	0.102905855
203	0x3c4aac12	0.012370126
204	0x3d99b615	0.075054325
205	0x3df13ff9	0.1177978
206	0x3d4269b5	0.04746409
207	0x3d99d221	0.07510782
208	0x3d97bbe0	0.07408881
209	0x3dd02dbb	0.101649724
210	0x3d9025fc	0.07038495
211	0xbc921d2f	-0.017836181
212	0x3d8bab7c	0.068198174
213	0xbdd95124	-0.106111795
214	0xbe08d3f1	-0.13362099
215	0x3d435778	0.04769084
216	0x3db12960	0.0865047
217	0xbd045d4a	-0.03231553
218	0xbc926b9f	-0.017873583
219	0x3aaa4955	0.0012991825
220	0x3cdc01b0	0.026856273
221	0xbe3d82aa	-0.18506876
222	0xbb086db2	-0.0020817337
223	0xbd95a19b	-0.073062144
224	0xbe4038f4	-0.18771726
225	0xbd0fb46c	-0.035084173
226	0xbe069998	-0.13144529
227	0x3d52ed03	0.051495563
228	0x3d9ccba5	0.076560296
229	0x3eb241f5	0.34815946
230	0x3d201a21	0.03908742
231	0x3de0c3d5	0.10974852
232	0x3cce0ea9	0.025153475
233	0x3d86103b	0.065460645
234	0x3bb7b65f	0.005606457
235	0xbe1ff399	-0.15620269
236	0xbd4d1e34	-0.050077632
237	0xbb9bb1de	-0.004751428
238	0x3d2f08fc	0.042733178
239	0x3f078f67	0.5295319
240	0xbd9191af	-0.07107865
241	0xbe0b951f	-0.13631104
242	0x3c556481	0.01302445
243	0x3dd786bb	0.10523745
244	0x3f2fe058	0.68701696
245	0xbd94d0be	-0.07266377
246	0x3d92c3d9	0.07166261
247	0xbde65c91	-0.112481244
248	0x3d803ef5	0.06262008
249	0x3e0f0edf	0.13970517
250	0xbdc351b4	-0.09537068
251	0x3c8b73c9	0.017022984
252	0xbd92dddf	-0.07171225
253	0xbd544dcb	-0.051832
254	0xbd97c8eb	-0.07411369
255	0xbdee01fb	-0.116214715

encoder_lstm.weight_hh_l0 f4 [256, 64]
0	0x3df88f82	0.12136747
1	0xbde57997	-0.11204832
2	0xbdb77129	-0.089571305
3	0x3bf83b7a	0.0075754495
4	0x3d488fc0	0.048965216
5	0xbcdba910	-0.026814014
6	0xbdb6ab4b	-0.0891939
7	0x3e01ccee	0.1267583
8	0x3d420685	0.0473695
9	0x3dd9b117	0.1062948
10	0xbd51b4c8	-0.051197797
11	0x3e342995	0.17593987
12	0x3d0bdb1b	0.034144502
13	0x3cff2cc7	0.031149281
14	0x3add926a	0.0016904597
15	0x3da10cf4	0.07863799
16	0xbcec432e	-0.028840628
17	0x3c987075	0.018608311
18	0xbc83ab55	-0.016072908
19	0x3dc04a3f	0.09389161
20	0x3d962d81	0.07332898
21	0xbdeb1b82	-0.11479856
22	0xbdad0aa9	-0.08449299
23	0x3dab49c1	0.08363677
24	0xb99ef35b	-0.00030317422
25	0xbe243d69	-0.16039051
26	0xbd71d283	-0.05903865
27	0x3dd64883	0.10463049
28	0xb8cafedb	-9.679581e-05
29	0xbd7e46f8	-0.0620794
30	0xbcddb3ab	-0.027063211
31	0x3dc83f49	0.09777696
32	0xbe1e4705	-0.1545678
33	0x3b28a951	0.0025735686
34	0x3dcb0879	0.099137254
35	0xbb611c26	-0.0034349053
36	0x3d9d9d8b	0.076960646
37	0x3cff50f6	0.031166535
38	0x3dd583c7	0.10425525
39	0x3c134eb2	0.00899093
40	0xbe0494c2	-0.12947372
41	0x3ce8c023	0.02841193
42	0xbdf1d6ad	-0.11808524
43	0x3d8703cc	0.06592521
44	0x3e022ca6	0.12712345
45	0xbdaf5870	-0.0856179
46	0xbbc9903b	-0.006151227
47	0x3c08960d	0.008336556
48	0xbe4f61c1	-0.20252134
49	0xbd87c6d9	-0.06629724
50	0xbe04781c	-0.12936443
51	0xbd187f67	-0.037230875
52	0xbdf53a9a	-0.11974068
53	0xbca77fcb	-0.020446679
54	0x3bd2b8a7	0.0064307037
55	0x3cb9b6ff	0.022670267
56	0xbdbb9344	-0.09158948
57	0x3c2a767d	0.010404226
58	0x3e066f9a	0.1312851
59	0xbe1d555e	-0.15364596
60	0xbce260e6	-0.027634095
61	0x3dc1f3e0	0.094703436
62	0xbdfae8e8	-0.122514546
63	0x3cabeb61	0.02098626
64	0x3da80f3c	0.08206031
65	0x3e2b024b	0.16700093
66	0x3cdf154c	0.027231835
67	0xbe14af6e	-0.14520046
68	0x3db3e2d9	0.08783502
69	0xbdcc22b9	-0.0996756
70	0x3e2d1bdc	0.16905159
71	0x3c36949d	0.011143831
72	0x3b2920e7	0.0025806965
73	0xbc20e5a1	-0.009820373
74	0xbd2a2b3d	-0.04154514
75	0x3e06a9ce	0.13150713
76	0xbe574132	-0.21020964
77	0xbd5389a4	-0.051644936
78	0x3df67c16	0.12035386
79	0xbd9ad33f	-0.07559823
80	0x3ce49191	0.027901443
81	0x3df924ca	0.1216522
82	0xbdfa5dbd	-0.122249104
83	0x3dbe268f	0.09284698
84	0x3e18e48e	0.14930937
85	0x3ceed9c6	0.029156577
86	0xbbbd12a6	-0.0057700453
87	0x3cd50250	0.02600208
88	0x3d51a32a	0.051180996
89	0xbe227ef5	-0.15868743
90	0x3d1f34ae	0.0388686
91	0xbc1116fb	-0.008855577
92	0xbdc0cca9	-0.09414036
93	0x3d50855a	0.050908424
94	0xbc0aa492	-0.008462088
95	0xbd58dff0	-0.05294794
96	0xbe0fa614	-0.14028198
97	0x3d68cfe8	0.0568389
98	0x3dc3c04d	0.09558163
99	0x3db67349	0.08908708
100	0x3de30bb7	0.11086219
101	0x3e108d5f	0.14116429
102	0x3d6f5879	0.058433983
103	0x3c3bf9cc	0.01147313
104	0x3cec2804	0.028827675
105	0x3de04697	0.10950964
106	0xbd84296f	-0.06453215
107	0x3dcd6685	0.1002932
108	0xbc475240	-0.012165606
109	0xbd7e089d	-0.062019933
110	0x3cb01b65	0.021497438
111	0xbdf6acd7	-0.12044685
112	0x3da0b41c	0.07846853
113	0x3e369aef	0.1783254
114	0x3cb488d5	0.022037903
115	0xbd073622	-0.03301061
116	0xbc3bf8ec	-0.011472922
117	0x3d865ac3	0.0656028
118	0x3d26e103	0.04074193
119	0xbd7efbf9	-0.06225202
120	0xbd57800d	-0.052612353
121	0x3bdda2e8	0.0067638047
122	0x3e4b490e	0.19852087
123	0xbe148872	-0.14505175
124	0x3cbdc027	0.023162914
125	0x3ccd5359	0.025064157
126	0x3bb967e7	0.005658138
127	0x3d20de64	0.03927459
128	0x3d1919ec	0.037378237
129	0xbdeafa87	-0.114735655
130	0xbdfb0d90	-0.12258446
131	0x3cd35046	0.025795113
132	0x3d9723fb	0.073799096
133	0x3da405c6	0.08008914
134	0x3dbf772c	0.09348902
135	0x3d5a51b3	0.05330057
136	0x3e045f3b	0.12926953
137	0x3d3231c9	0.04350451
138	0x3d91ef51	0.07125724
139	0xbc5f2388	-0.013619311
140	0xbc8b6411	-0.017015489
141	0x3d07bc0b	0.033138316
142	0x3d73157d	0.059346665
143	0xbe20ab2c	-0.15690297
144	0xbab7e731	-0.0014030692
145	0x3d9b7346	0.07590346
146	0x3e2cc759	0.1687292
147	0xbd3db485	-0.046314735
148	0xbc4191bf	-0.011814534
149	0x3e0e1c18	0.13877904
150	0x3dd9b925	0.10631017
151	0xbdf6f8fe	-0.1205921
152	0x3d65c315	0.056094248
153	0xbd77f029	-0.06053177
154	0xbd7022a6	-0.058626793
155	0xbd9d2fb3	-0.076751135
156	0xbdd6e05d	-0.10492013
157	0x3d1f3398	0.038867563
158	0xbe29c033	-0.16577224
159	0xbe185a40	-0.14878178
160	0xbe0af5b0	-0.13570285
161	0x3d4aa8a4	0.049477234
162	0xbe08a79a	-0.13345185
163	0xbdc471c6	-0.09592013
164	0x3db1cde3	0.08681848
165	0xbd3449cb	-0.044015687
166	0xbd99ea45	-0.075153865
167	0xbdb45414	-0.08805099
168	0xbdea653e	-0.11445092
169	0xbde788bc	-0.11305377
170	0xbdc47b1c	-0.09593794
171	0x3dddfa4b	0.10838755
172	0xbdf3e591	-0.11909021
173	0x3e135846	0.14389142
174	0xbc882ee0	-0.016623914
175	0x3d2ed6dd	0.04268538
176	0xbda648c5	-0.081193484
177	0x3d8282a9	0.06372578
178	0xbd101496	-0.035175882
179	0x3c99fd2a	0.018797476
180	0xbe0475ea	-0.12935606
181	0xbdd285a7	-0.102793984
182	0x3e2a2637	0.1661614
183	0x3dfff8e9	0.12498648
184	0xbd9e1945	-0.077196635
185	0xbd2343b5	-0.039859492
186	0xbcd6dce3	-0.026228374
187	0xbd0b66dd	-0.034033645
188	0x3da620f7	0.08111756
189	0xbdd01b3f	-0.10161447
190	0xbdffb1b2	-0.124850646
191	0x3cd977d5	0.026546398
192	0x3d4e4f0f	0.050368365
193	0xbc572cbc	-0.013133224
194	0xbd758f13	-0.0599509
195	0x3c63a4f6	0.01389431
196	0x3d85dbb2	0.06536044
197	0x3e07955d	0.13240571
198	0x3d3126de	0.043249957
199	0x3e223975	0.1584223
200	0x3bc964f8	0.0061460696
201	0x3ce65648	0.028117314
202	0xbe1d2f43	-0.1535006
203	0x3e0e8458	0.13917673
204	0xbde783fb	-0.1130447
205	0xbe038599	-0.12843932
206	0x3d33163c	0.043722376
207	0x3d288758	0.0411447
208	0xbe52666d	-0.20546885
209	0xbc82a6f2	-0.015948746
210	0xbdcc1204	-0.09964374
211	0x3ccb97cd	0.024852658
212	0x3e36ff4e	0.17870829
213	0x3e03d6ce	0.1287491
214	0x3d1f853d	0.038945425
215	0xbda98fea	-0.082794026
216	0x3e110196	0.14160761
217	0xbd5c495f	-0.05378091
218	0xbd398b5c	-0.04529892
219	0x3ddbad0a	0.10726364
220	0xbcf92a54	-0.030415691
221	0xbe2adb36	-0.16685185
222	0xbcd3825d	-0.025818998
223	0xbe877bc5	-0.26461616
224	0x3c8acedb	0.01694434
225	0x3dd35853	0.10319581
226	0x3d8ab6d6	0.067731544
227	0x3dee7509	0.116434164
228	0x3dbd1b66	0.092337415
229	0x3e518b10	0.20463204
230	0x3e50872e	0.20364067
231	0x3c66df68	0.01409135
232	0x3da95480	0.0826807
233	0x3dbb07d2	0.09132351
234	0xbd91070a	-0.07081421
235	0x3d9d4dcc	0.07680854
236	0xbcc20d55	-0.023687998
237	0xbcaed782	-0.021342997
238	0x3df9d584	0.12198928
239	0xbcbcafbe	-0.02303302
240	0xbe1176ef	-0.14205526
241	0x3c14fd20	0.009093553
242	0xbe3a5345	-0.18195827
243	0xbd2613fe	-0.04054641
244	0xbdaec2fa	-0.085332826
245	0xbd0fcfe7	-0.03511038
246	0x3c4c5ae0	0.012472838
247	0xbde6f9bd	-0.112781025
248	0x3c797341	0.015225233
249	0xbd9bc75e	-0.07606386
250	0xbb065f6e	-0.0020503658
251	0x3d458d95	0.048230726
252	0xbcc98b00	-0.024602413
253	0x3e0794b3	0.13240318
254	0x3d77d961	0.060510043
255	0x3deb5122	0.11490084

encoder_lstm.bias_ih_l0 f4 [256]
0	0x3d6dc518	0.05804929
1	0x3d933ed1	0.07189716
2	0xbbcdc9d8	-0.006280165
3	0x3e03560e	0.12825796
4	0xbd82eea8	-0.06393176
5	0x3d50d2aa	0.050982155
6	0x3c0c4747	0.008561916
7	0xbc633f88	-0.0138701275
8	0xbe0452ba	-0.12922183
9	0x3d56df87	0.052459266
10	0x3d93b272	0.0721177
11	0x3dd217cf	0.102584474
12	0xbdfcfa4a	-0.12352426
13	0xbcb6758d	-0.02227285
14	0x3d6cb0ed	0.057785917
15	0xbe146f97	-0.14495693
16	0x3d883144	0.06650022
17	0xbe1c4ea7	-0.15264378
18	0x3cb647c7	0.022251023
19	0x3bd30a92	0.006440469
20	0x3d02a1be	0.03189253
21	0xbc139918	-0.009008668
22	0xbe1c8498	-0.15284956
23	0xbb992e9c	-0.0046747457
24	0x3d2a0ec3	0.041517984
25	0xbd727c98	-0.059200853
26	0xbe027f19	-0.12743796
27	0xbd86684f	-0.06562864
28	0x3da2846a	0.07935412
29	0x3d626ef4	0.055281594
30	0xbdd58ed0	-0.1042763
31	0x3d2184dd	0.03943335
32	0xbd0448f4	-0.032296136
33	0x3d67b816	0.056572042
34	0xbdbae479	-0.09125609
35	0xbe1dd0d3	-0.15411691
36	0xbdec8311	-0.115484364
37	0xbdd9440c	-0.10608682
38	0x3dd4c7b1	0.103896506
39	0xbd9c0b92	-0.07619394
40	0xbdc73b3a	-0.097280934
41	0x3ab1f456	0.0013576846
42	0xbdb6e259	-0.08929891
43	0x3ddfa774	0.10920611
44	0xbd8bb9b8	-0.068225324
45	0xbd95bb3b	-0.07311102
46	0x3d77bda6	0.060483597
47	0x3cd9a128	0.026566103
48	0x3db874e7	0.09006672
49	0xbd2f3ce4	-0.04278268
50	0xbde3f99a	-0.11131592
51	0xbddfe608	-0.10932547
52	0x3d02a952	0.031899758
53	0xbd456739	-0.048194144
54	0xbc9e7132	-0.019341085
55	0x3daaae33	0.08334007
56	0x3d73ba07	0.05950358
57	0x3dd495e0	0.10380149
58	0x3df1e56e	0.11811338
59	0x3c2526d4	0.010080058
60	0x3da9ffd6	0.0830075
61	0x3ab995c5	0.0014159015
62	0x3e03a2c7	0.12855063
63	0xbe0b6b0f	-0.13615058
64	0xbdef6f10	-0.11691105
65	0x3ccd0f69	0.025031762
66	0xbcb66bda	-0.022268225
67	0xbd2cf562	-0.042226203
68	0xbd821786	-0.06352143
69	0xbdc702af	-0.09717309
70	0xbc3072b6	-0.010769537
71	0x3df63218	0.120212734
72	0xbdd6ac9d	-0.10482142
73	0xbcd00f4b	-0.025397917
74	0xba91f9a3	-0.001113702
75	0xbd5f0222	-0.054445393
76	0xbc302f6c	-0.010753494
77	0x3c9e48e3	0.019321864
78	0x3b219dc1	0.002466068
79	0xbe3bd837	-0.18344198
80	0x3c7c9f58	0.01541885
81	0xbd5eb714	-0.054373816
82	0x3e25a5e8	0.1617657
83	0xbd70b81b	-0.058769327
84	0x3d936236	0.071964666
85	0x3c94a52a	0.018145163
86	0x3d540423	0.051761758
87	0xbdab4ca9	-0.08364231
88	0x3dcbb26f	0.09946143
89	0xbdb6ec13	-0.08931746
90	0xbde6c7f2	-0.11268605
91	0xbdf9225f	-0.12164759
92	0x3dd1d887	0.102463774
93	0xbc8f7108	-0.017509952
94	0x3d372dd0	0.044721425
95	0x3ddb9e94	0.10723606
96	0x3dd1c376	0.10242359
97	0xbdb6e189	-0.08929736
98	0x3e6bdf1b	0.23034327
99	0xbe2cdb50	-0.16880536
100	0x3d87fad1	0.06639636
101	0x3c6de498	0.014519833
102	0x3c926d9e	0.017874535
103	0xbd901865	-0.07035903
104	0x3db87d22	0.09008242
105	0x3d96ff14	0.07372871
106	0xbcb78c0f	-0.022405652
107	0xbe0ebd16	-0.13939318
108	0x3d97838e	0.07398139
109	0x3cfd8c92	0.030950818
110	0x3cd591d3	0.026070511
111	0xbe08190e	-0.13290808
112	0xbe01aae1	-0.12662841
113	0x3e052a20	0.1300435
114	0x3cd652ae	0.026162472
115	0xbd8e703a	-0.06954999
116	0x3d79f13e	0.061021082
117	0x3c1985cc	0.009370279
118	0xbd858527	-0.065195374
119	0x3ceb0002	0.028686527
120	0x3aecfacc	0.0018080114
121	0x3db0d5e9	0.0863455
122	0x3e10f543	0.1415606
123	0xbde2172f	-0.11039578
124	0x3a8774eb	0.0010334527
125	0x3d5d495c	0.05402504
126	0x3d0d5b2e	0.034510784
127	0xbdb972f4	-0.09055129
128	0x3cbfd46f	0.023416726
129	0x3db2ae8f	0.08724701
130	0x3d92c87b	0.07167145
131	0xbe2489a9	-0.16068138
132	0xbdbde606	-0.09272389
133	0xbe325df3	-0.17418651
134	0xbc4919a6	-0.0122741815
135	0xbe0a2ffb	-0.13494866
136	0xbbd5fd26	-0.006530422
137	0xbe2ccfee	-0.16876194
138	0x3d80e4a0	0.06293607
139	0xbe350b41	-0.17680074
140	0xbc717705	-0.014737849
141	0xbcc62f12	-0.024192367
142	0x3d1c3ee2	0.038145907
143	0x3d11913f	0.035538908
144	0x3d3b95af	0.045797046
145	0xbdd2b337	-0.10288089
146	0xbdfd371e	-0.123640284
147	0x3e1fda55	0.15610631
148	0xbd1ee0da	-0.038788654
149	0x3d66e1b8	0.056367606
150	0xbd98f55c	-0.074686736
151	0x3dc264c1	0.094918735
152	0xbd827b55	-0.0637118
153	0x3e0b4cff	0.1360359
154	0x3dc46816	0.09590165
155	0x3dd4a9ea	0.10383971
156	0x3daf1892	0.08549608
157	0xbe0312d2	-0.12800148
158	0x3d0dd353	0.034625363
159	0x3d08a5b4	0.03336115
160	0xbcf739ad	-0.03017887
161	0x3e0445be	0.1291723
162	0xbdbab9ff	-0.09117507
163	0xbd9367e7	-0.07197552
164	0xbda089b2	-0.07838763
165	0xbd82d253	-0.063877724
166	0xbe0c3fb0	-0.1369617
167	0xbc5ad722	-0.013356956
168	0x3df0c549	0.11756379
169	0x3db4241f	0.08795952
170	0x3c32ec80	0.010920644
171	0xbdb882d3	-0.09009328
172	0x3d1ca704	0.038245216
173	0x3e2dac98	0.1696037
174	0x3d1147e1	0.03546894
175	0xbcc80363	-0.024415677
176	0x3c890d02	0.016729835
177	0xbc0cd8e6	-0.0085966345
178	0xbdcc5d5b	-0.09978744
179	0xbd17882c	-0.036995098
180	0x3e2edae1	0.17075683
181	0xbd391530	-0.04518622
182	0xbbb81bfd	-0.005618571
183	0xbd8f9d1d	-0.07012389
184	0xbe3e7062	-0.18597558
185	0x3c011c70	0.007880315
186	0x3da2f105	0.07956127
187	0x3d9c25b1	0.076243766
188	0x3d54d059	0.05195651
189	0x3e0049bd	0.12528129
190	0x3d17ee5b	0.037092548
191	0x3d650ca8	0.055920273
192	0xbb8ebd79	-0.004356083
193	0x3c4e4d74	0.012591708
194	0xbd3a53f6	-0.045490228
195	0x3b738c26	0.0037162392
196	0x3cd118f6	0.025524598
197	0x3d38f537	0.04515573
198	0x3d7392ff	0.05946636
199	0x3e0d6174	0.13806707
200	0xbc9332cc	-0.017968558
201	0x3d493672	0.04912419
202	0xbd59f4bf	-0.053211924
203	0xbd0895f2	-0.033346124
204	0xbde8d509	-0.11368758
205	0xbda49935	-0.080370344
206	0x3d1e9aa7	0.038721707
207	0xbdcae7f9	-0.099075265
208	0x3d1fbb1e	0.03899681
209	0xbdaffb56	-0.085928604
210	0x3dc1fa88	0.09471613
211	0x3e055100	0.1301918
212	0x3d398156	0.04528936
213	0xbdaefc7e	-0.08544253
214	0xbcdcffc6	-0.026977431
215	0x3d8f5d94	0.070002705
216	0xbd4c8454	-0.049930885
217	0xbd813b09	-0.06310088
218	0xbcb4f00b	-0.022087118
219	0x3d68a7b9	0.056800578
220	0x3da50117	0.080568485
221	0x3d8b16de	0.06791471
222	0x3cece219	0.028916406
223	0xbcc55e29	-0.02409275
224	0xbd80507a	-0.0626535
225	0x3d1112b9	0.035418246
226	0x3d90dcdd	0.07073376
227	0x3dbe934e	0.0930544
228	0xbe28ecd7	-0.16496597
229	0x3d5facd7	0.054608192
230	0x3d6e79f7	0.058221783
231	0xbd25d450	-0.04048568
232	0x3d298340	0.041384935
233	0x3e21a800	0.15786743
234	0xbb47db44	-0.0030495683
235	0xbd9ab0cf	-0.07553255
236	0xbd65f443	-0.05614115
237	0xbdadb8be	-0.084825024
238	0x3b797931	0.003806662
239	0x3de3d1c6	0.111239955
240	0xbdd7f25b	-0.105442725
241	0x3df0e809	0.11763007
242	0xbd17599b	-0.03695069
243	0x3d190b20	0.037364125
244	0x3cc22b4d	0.023702288
245	0xbe20110d	-0.15631504
246	0xbdabd3ba	-0.08389993
247	0x3d2be88f	0.041969832
248	0xbd688d0a	-0.05677513
249	0x3d4d9417	0.050190058
250	0x3dd3fcfe	0.10350989
251	0xbe0aeb30	-0.1356628
252	0x3cf7a2b3	0.030228948
253	0x3dbd5cf0	0.09246242
254	0x3e08e9c4	0.13370425
255	0x3ce3eb7d	0.02782225

encoder_lstm.bias_hh_l0 f4 [256]
0	0xbdc00cfb	-0.09377476
1	0xbdacef73	-0.08444109
2	0xbe136850	-0.14395261
3	0x3dc3f34e	0.09567891
4	0xbe287d67	-0.16454087
5	0x3d5c2daa	0.053754486
6	0x3ab66192	0.0013914576
7	0x3d994cbc	0.07485339
8	0x3d9f3fb0	0.07775819
9	0xbcc3a709	-0.02388336
10	0xbccfe467	-0.025377465
11	0xbe043e26	-0.12914333
12	0x3c311eeb	0.010810594
13	0xbdf69633	-0.12040367
14	0xbde3a791	-0.11115945
15	0xbd1ae6df	-0.037817832
16	0xbd6b0e03	-0.05738641
17	0xbdcd99eb	-0.10039123
18	0xbd27348c	-0.040821597
19	0x3d18c1d4	0.037294224
20	0x3da4e834	0.08052102
21	0x3d9a0cc3	0.07521965
22	0xbdb341ad	-0.08752761
23	0xbdfa7953	-0.12230172
24	0x3dde0ef7	0.10842698
25	0xbd9a7e25	-0.075435914
26	0xbdf736c9	-0.12070996
27	0x3ce801d9	0.028321194
28	0xbd692100	-0.056916237
29	0xbd931200	-0.071811676
30	0x3df1080e	0.117691144
31	0x3d94e985	0.07271103
32	0xbe29760b	-0.16548936
33	0x3d990414	0.07471481
34	0x3df41fc2	0.1192012
35	0xbcd13e86	-0.025542509
36	0xbe09433e	-0.13404557
37	0xbdda9e6b	-0.10674747
38	0x3dc269f5	0.09492866
39	0xbdc0a90a	-0.09407242
40	0x3db8f9d5	0.09032027
41	0x3e1c0345	0.15235622
42	0xbe12369b	-0.14278643
43	0x3c843a0e	0.016140964
44	0xbd30eb30	-0.043193042
45	0xbd39ac35	-0.045330245
46	0xbd74d1f5	-0.059770543
47	0xbd7baa22	-0.06144155
48	0x3c9026f8	0.017596707
49	0x3e024c28	0.12724364
50	0x3dd9144a	0.10599573
51	0xbdf40976	-0.11915867
52	0xbc9f4d65	-0.019446084
53	0xbd8f5659	-0.069988914
54	0xbd289fbd	-0.041167963
55	0xbd8aa929	-0.06770546
56	0x3d484766	0.048896216
57	0xb955386c	-0.00020334282
58	0x3d44dc89	0.04806188
59	0x3d1aa580	0.03775549
60	0x3d8ccefc	0.06875417
61	0xbd499161	-0.04921091
62	0x3e007b92	0.12547138
63	0xbda9e12c	-0.08294901
64	0xbe0eaa5c	-0.13932174
65	0x3e1e8bab	0.15482967
66	0xbd158bec	-0.036510393
67	0x3ddaa0c3	0.10675194
68	0xbcf3f859	-0.029781507
69	0x3c0c0c9c	0.008547928
70	0xbd87fe4d	-0.06640301
71	0x3d5fe425	0.054660935
72	0xbe2d56e6	-0.1692768
73	0xbdf87e11	-0.1213342
74	0x3d11f252	0.035631485
75	0xbd6d428f	-0.057924803
76	0x3cb081ea	0.021546323
77	0xbdbbebf1	-0.091758616
78	0xbde27ee4	-0.11059359
79	0xbe176368	-0.14784014
80	0x3d2f69f5	0.042825658
81	0xbe12e367	-0.1434456
82	0x3dc2ade7	0.095058255
83	0xbc9eeda3	-0.019400423
84	0x3d4f5a78	0.050623387
85	0x3d84d22e	0.06485401
86	0xbc84a5ed	-0.0161924
87	0xbd091a8c	-0.033472583
88	0x3d900f69	0.07034189
89	0xbd64d680	-0.055868626
90	0x3db707c9	0.08937032
91	0xbd22bd7d	-0.03973149
92	0x3daea201	0.085269935
93	0xbdac7b11	-0.084219106
94	0xbd804fde	-0.062652335
95	0xbd51e3a6	-0.051242493
96	0xbc104cd5	-0.008807381
97	0xbdb7ee85	-0.08981041
98	0xb8ba8673	-8.894214e-05
99	0xbd3797de	-0.044822566
100	0xbd5531c9	-0.052049432
101	0xbe14a8df	-0.14517544
102	0xbb83fd52	-0.004028001
103	0xbd0f305c	-0.03495823
104	0x3d7d0375	0.061770875
105	0x3d878a5e	0.06618188
106	0xbca9762f	-0.020686237
107	0x3cc642a9	0.024201708
108	0x3ccd9fb1	0.02510056
109	0xbdee9946	-0.11650328
110	0x3d5dc374	0.054141477
111	0xbdb9e20a	-0.09076317
112	0xbcc21bc6	-0.023694884
113	0x3d7a29da	0.06107507
114	0xbd62ac25	-0.05533995
115	0xbd84ff6b	-0.064940296
116	0x3ddc9bc5	0.10771898
117	0x3d66f96d	0.056390215
118	0x3dd29866	0.10282974
119	0x3d26047d	0.040531624
120	0x3b27c987	0.0025602297
121	0x3dd7882d	0.1052402
122	0x3df6f14a	0.12057741
123	0x3da128d9	0.07869119
124	0xbcd88adb	-0.026433399
125	0xbae20f2a	-0.0017246951
126	0xbc6af6f7	-0.014341108
127	0xbd4f5bbd	-0.050624598
128	0xbe075c4c	-0.13218802
129	0xba9f6c90	-0.0012163091
130	0xbdc83284	-0.0977526
131	0xbd65e307	-0.056124713
132	0x3c4a319d	0.01234093
133	0xbe2a51f7	-0.1663283
134	0x3d0b174c	0.033957765
135	0xbe0245b3	-0.127219
136	0x3d34769e	0.044058435
137	0xbe413521	-0.18867923
138	0x3d822626	0.063549325
139	0x3ca99f40	0.02070582
140	0x3cc835cd	0.024439717
141	0xbcf46fa4	-0.02983839
142	0x3db46eba	0.08810182
143	0x3dde3077	0.10849088
144	0x3df6ff53	0.12060418
145	0x3c365d6e	0.011130674
146	0xbde37fba	-0.11108346
147	0xbc845ca8	-0.016157463
148	0xbde6eee2	-0.11276032
149	0xbb1446b0	-0.002262514
150	0xbd8946e8	-0.067029774
151	0xbd883af4	-0.066518694
152	0x3d2dd6dd	0.042441238
153	0xbdb49854	-0.08818117
154	0x3d7f4d8b	0.06232981
155	0x3d4586e9	0.048224363
156	0x3dc4f33a	0.09616704
157	0xbdf4ef5b	-0.11959716
158	0x3e13dbdb	0.14439337
159	0x3e0c066d	0.13674326
160	0x3dba3250	0.090916276
161	0xbd5897a9	-0.05287901
162	0x3d6faf66	0.058516882
163	0x3d3b4080	0.04571581
164	0x3dddcc1a	0.10829945
165	0x3ddfc537	0.109262876
166	0xbdb51fbf	-0.08843946
167	0x3d149904	0.03627874
168	0x3d69797e	0.05700063
169	0xbcb84d5a	-0.022497822
170	0xbdd3ebc7	-0.10347705
171	0xbd34b04b	-0.04411344
172	0x3df29e64	0.11846617
173	0xbcf099a6	-0.02937014
174	0xbe31837d	-0.17335315
175	0x3d88e3b5	0.06684057
176	0x3d273846	0.04082515
177	0xbd037a22	-0.032098897
178	0x3d97a9b3	0.074054144
179	0xbd7916e1	-0.060812835
180	0x3df761a7	0.120791726
181	0x3d2a10bb	0.04151986
182	0xbe0aaec8	-0.13543236
183	0xbe12de2e	-0.14342567
184	0xbd5ca51e	-0.053868406
185	0xbe4fd085	-0.20294388
186	0x3d73a387	0.059482124
187	0xbd0aae81	-0.033857826
188	0x3d6acaa7	0.05732217
189	0x3dbf0353	0.09326806
190	0x3e3a64ee	0.18202564
191	0x3da9bc74	0.08287898
192	0x3da2c64e	0.0794798
193	0x3ca98202	0.020691875
194	0x3d96ca80	0.073628426
195	0x3bbd8fcc	0.005784964
196	0x3ca23bb7	0.019803865
197	0x3d2c8c61	0.042126063
198	0xbe0826f3	-0.13296108
199	0xbd7b9e2f	-0.061430153
200	0x3b85e44a	0.004086052
201	0x3de686e7	0.11256199
202	0xbc991512	-0.018686805
203	0x3d96db47	0.073660426
204	0x3d500aa2	0.05079139
205	0xbcf06473	-0.029344773
206	0xbdd1e154	-0.10248056
207	0x3df867cd	0.121291734
208	0x3d1ebd12	0.03875453
209	0xbd9a272b	-0.07527002
210	0x3ddf36aa	0.10899098
211	0x3e07c3b0	0.13258243
212	0x3dc71457	0.097206764
213	0x3ae07b21	0.0017126539
214	0x3d0c6e03	0.034284603
215	0xbb64c7bf	-0.0034909097
216	0xbd8777e5	-0.06614665
217	0x3df0dd1e	0.11760925
218	0x3db21211	0.08694852
219	0xbdc5d0d2	-0.0965897
220	0x3cb23090	0.021751672
221	0xbb474d44	-0.0030411044
222	0xbdcb284d	-0.09919796
223	0xbd321c06	-0.043483756
224	0xbd719ad7	-0.058985557
225	0x3b8f9a2a	0.0043823915
226	0xbe0f6e48	-0.14006913
227	0xbd0bc6d4	-0.034125164
228	0x3c0541d0	0.008133367
229	0x3da8411b	0.08215543
230	0xbdc325a6	-0.09528665
231	0xbe25fccd	-0.16209717
232	0x3d2ce6ed	0.042212415
233	0xbd8b9747	-0.06815963
234	0xbe075824	-0.13217217
235	0xbd5ad6b4	-0.053427413
236	0xbc136e9f	-0.008998542
237	0xbda89cc5	-0.082330264
238	0x3d8b9c37	0.06816905
239	0xbc9b0d7c	-0.018927328
240	0x3c9e563f	0.019328235
241	0xbccd5acb	-0.025067708
242	0xbd9c7a12	-0.076404706
243	0xbe1eeef4	-0.15520841
244	0xbd8e9a97	-0.069630794
245	0x3d078b73	0.033091974
246	0x3cc7db49	0.024396555
247	0x3e16039d	0.14649816
248	0xbda89385	-0.08231262
249	0xbd107e3f	-0.035276648
250	0x3d63e6ac	0.055639908
251	0xbe19dec2	-0.15026382
252	0x3d851753	0.06498589
253	0x3d869225	0.065708436
254	0x3da72b71	0.08162583
255	0xbca39484	-0.019968279

encoder_lstm.weight_ih_l1 f4 [256, 64]
0	0xbc53de0b	-0.012931357
1	0xbd88558d	-0.066569425
2	0x3e3a704f	0.18206905
3	0x3df267a6	0.118361756
4	0x3d2e72ab	0.042589825
5	0x3cc8ade8	0.024496987
6	0x3dada74d	0.08479176
7	0xbe24417b	-0.16040604
8	0xbdc4ebab	-0.096152626
9	0xbd14f490	-0.036366045
10	0x3dfbc5fa	0.122936204
11	0xbc97b277	-0.018517716
12	0x3e1de109	0.15417875
13	0x3d9c6d6b	0.07638057
14	0x3d093e33	0.033506583
15	0x3db4f8bd	0.088365056
16	0xbdd1080f	-0.10206615
17	0xbe24af06	-0.16082391
18	0xbb4db7e7	-0.0031390132
19	0xbe36ee40	-0.17864323
20	0x3ce8a6b6	0.028399806
21	0xbdab2e38	-0.08358425
22	0xbe24985a	-0.16073743
23	0xb97f3f50	-0.00024342281
24	0xbd5f1eec	-0.05447285
25	0xbd16ce84	-0.036818042
26	0x3de85c42	0.11345722
27	0x3c24065e	0.010011284
28	0x3dbb62fe	0.09149741
29	0xbd2ffb0d	-0.04296403
30	0x3db69a6f	0.089161746
31	0x3db8d559	0.09025068
32	0x3d3e7605	0.04649927
33	0xbd2e7407	-0.04259112
34	0x3dedd4c1	0.11612845
35	0x3e2c0414	0.1679843
36	0x3bcecb19	0.006310832
37	0xbdb267aa	-0.087111786
38	0xbd7bc120	-0.061463475
39	0xbd0513f6	-0.03248974
40	0x3dfd0eeb	0.12356361
41	0x3e21ad1f	0.15788697
42	0x3d9422b1	0.07233179
43	0x3ac5a34c	0.0015078573
44	0x3e19ef1d	0.1503262
45	0x3be547d8	0.00699709
46	0xbd23c890	-0.039986193
47	0xbc9b5b7e	-0.018964525
48	0xbd139b90	-0.036037028
49	0xbd6a2894	-0.057167605
50	0xbdbad994	-0.09123531
51	0xbdff5434	-0.12467232
52	0xbdc458a0	-0.095872164
53	0xbdacccf7	-0.084375314
54	0x3b7a492f	0.0038190593
55	0x3d1c71fa	0.038194634
56	0x3c47d0d9	0.012195789
57	0xba8b4a9b	-0.0010627093
58	0x39aba64f	0.0003273957
59	0xbd1c5c1f	-0.03817379
60	0xbdecfcd8	-0.115716636
61	0x3df45f1f	0.119322054
62	0x3e1ec429	0.15504517
63	0x3d02b31f	0.031909104
64	0x3d470d65	0.04859676
65	0xbe1e18c5	-0.15439136
66	0x3c11c4f5	0.008897056
67	0xbd5ebc7e	-0.05437898
68	0x3e15756b	0.14595573
69	0x3dcb0f52	0.099150315
70	0xbcb5646a	-0.022142608
71	0x3da4981b	0.08036824
72	0x3c9eecb4	0.019399978
73	0x3d875204	0.0660744
74	0x3da98741	0.08277751
75	0x3d3563fd	0.04428481
76	0xbd5a9a3c	-0.053369746
77	0xbba4ce65	-0.005029487
78	0xbe1a0eb0	-0.15044665
79	0xbcfa1a22	-0.03053004
80	0xbd39cef4	-0.04536338
81	0xbe577c4e	-0.21043512
82	0x3d20cfed	0.039260793
83	0xbda8229b	-0.082097255
84	0x3e2e9fe5	0.17053182
85	0x3cfda285	0.030961284
86	0x3e08b172	0.1334894
87	0x3d9b8062	0.075928465
88	0x3d55029a	0.052004434
89	0x3dbf3767	0.09336739
90	0xbdd97883	-0.10618689
91	0x3a7d5e67	0.0009665251
92	0x3d2e3aeb	0.042536657
93	0xbc9420e5	-0.018082092
94	0x3d0fdf5d	0.035125125
95	0xbde511dc	-0.11185047
96	0xbd9d3283	-0.0767565
97	0x3da02a92	0.0782062
98	0xbdf0b1bf	-0.117526524
99	0xbd66ff3a	-0.056395747
100	0xbd7e2cda	-0.062054493
101	0xbdb7adca	-0.089686945
102	0x3e0245b7	0.12721907
103	0xbc9fad68	-0.019491866
104	0x3a7c4077	0.0009622643
105	0x3d9b0f9b	0.07571336
106	0x3d6cd345	0.05781867
107	0x3d82aba3	0.06380393
108	0x3dafbe65	0.08581237
109	0x3d5d7284	0.05406429
110	0xbc40dce1	-0.011771412
111	0xbdc7162b	-0.09721025
112	0x3e080fda	0.13287297
113	0xbda194c3	-0.07889702
114	0x3d68b28e	0.056810908
115	0x3e08f115	0.13373215
116	0xbe148864	-0.14505154
117	0xbe4fa31e	-0.20277068
118	0xbda708eb	-0.08155998
119	0x3d3db507	0.04631522
120	0x3d86044c	0.06543788
121	0xbd3477d7	-0.0440596
122	0xbce207d6	-0.027591627
123	0x3d8f3dd0	0.06994212
124	0xbd87ae3e	-0.06625031
125	0x3d2cf22a	0.042223133
126	0xbd8fb0e2	-0.070161596
127	0x3d751f9e	0.059844606
128	0x3d6d85f9	0.057989094
129	0xbe0e7fca	-0.13915935
130	0xbe06aaca	-0.13151088
131	0x3c5f1fb8	0.013618402
132	0xbd3031fc	-0.04301642
133	0x3de09116	0.10965173
134	0x3ce4787e	0.027889486
135	0x3e29434d	0.1652958
136	0xbe01ce1f	-0.12676285
137	0x3b4c1b44	0.0031144181
138	0xbe17d0dd	-0.14825769
139	0xbdbde51b	-0.09272214
140	0xbe2c68bc	-0.16836828
141	0xbde83861	-0.113388784
142	0xbe0bebaa	-0.13664117
143	0xbdbb7b19	-0.091543384
144	0xbdee1bfe	-0.11626433
145	0x3c4ee26f	0.012627228
146	0x3e27157b	0.16316788
147	0x3e443f41	0.19164754
148	0x3d0fe879	0.035133813
149	0x3d057fce	0.032592587
150	0x3d8766da	0.06611414
151	0xbd14c3a5	-0.036319394
152	0x3d85eff5	0.06539909
153	0x3d8ca26b	0.06866916
154	0xbd0ac574	-0.033879712
155	0xbd3a14dc	-0.04543005
156	0x3d9768d9	0.07393045
157	0x3e154918	0.14578664
158	0xbe050af0	-0.12992454
159	0xbe4d382b	-0.20040958
160	0xbd6dfd13	-0.05810268
161	0x3da4201d	0.080139376
162	0xbccbe49d	-0.024889285
163	0xbc9f85ae	-0.019472923
164	0x3d8099af	0.06279313
165	0x3dca3141	0.09872676
166	0x3e018654	0.12648898
167	0xbd9bf03d	-0.07614181
168	0x3cd981f3	0.026551222
169	0x3dcd7acc	0.10033187
170	0xbd9722ec	-0.07379708
171	0xbd28521d	-0.041093934
172	0x3dd53ab5	0.10411588
173	0xbd139f3e	-0.036040537
174	0xbd9392c2	-0.07205726
175	0x3d1c42c5	0.038149614
176	0xbcf70f15	-0.030158559
177	0x3df7f4c8	0.12107235
178	0x3d86dc15	0.06584946
179	0x3e5ebab6	0.21750912
180	0xbde5b6c8	-0.112165034
181	0xbd7ab098	-0.06120357
182	0xbd0839cf	-0.033258256
183	0x3e286997	0.1644653
184	0x3d90803e	0.0705571
185	0x3e203a65	0.15647276
186	0xbd092b11	-0.033488337
187	0xbc2e6b93	-0.010645765
188	0xbda0ade5	-0.07845668
189	0x3c247a9e	0.010039
190	0x3d2d5a12	0.042322226
191	0x3e162c49	0.14665331
192	0xbc9a5388	-0.018838659
193	0xbe2d1673	-0.16903095
194	0xbca6dd6f	-0.02036926
195	0x3e330154	0.17480975
196	0x3df4fb38	0.11961979
197	0x3db6bed0	0.08923113
198	0x3d7fdeb5	0.06246825
199	0x3dd26bba	0.102744535
200	0x3dca56bf	0.09879827
201	0x3e28afa1	0.16473247
202	0xbe442a26	-0.19156703
203	0xbcf5cd8f	-0.030005245
204	0xbbe76a3a	-0.0070622237
205	0xbe2d4951	-0.16922499
206	0xbe06d5a0	-0.13167429
207	0x3c178fa5	0.009250556
208	0xbe32ab0b	-0.1744806
209	0xbe08db1e	-0.13364837
210	0x3de22db7	0.11043876
211	0x3e1df8e9	0.15426983
212	0x3df32382	0.11872007
213	0x3e049e14	0.12950927
214	0x3d51d63c	0.0512297
215	0xbe0ae364	-0.13563305
216	0xbc0fca61	-0.008776278
217	0x3c031c00	0.008002281
218	0xbbd76a9b	-0.0065739877
219	0x3c0d9061	0.00864038
220	0xbdef67aa	-0.11689694
221	0x3c27c5bc	0.010240015
222	0xbe181cab	-0.14854686
223	0x3cb789e6	0.022404622
224	0x3c5a69bb	0.013330872
225	0x3da4f7c8	0.08055073
226	0xbe240347	-0.16016875
227	0xbe343ef5	-0.17602141
228	0x3d80f5b3	0.062968634
229	0x3e088717	0.13332783
230	0x3dfefffd	0.1245117
231	0xbd99297c	-0.07478616
232	0xbddf31c4	-0.10898164
233	0xbd12cee8	-0.035841852
234	0xbd9a9974	-0.075488
235	0x3dc38e12	0.09548582
236	0x3c226cfd	0.00991368
237	0xbd813b89	-0.063101836
238	0xbd564da9	-0.052320156
239	0x3d6d0bf5	0.05787273
240	0x3d1b4526	0.037907742
241	0x3e2f8e92	0.1714423
242	0xbd1d9fd7	-0.038482513
243	0xbd3c407a	-0.045959927
244	0xbde1befe	-0.11022757
245	0x3c41e1ee	0.011833651
246	0xbbf75edc	-0.00754915
247	0x3d261982	0.04055167
248	0x3e05ead5	0.13077863
249	0xbd14943b	-0.036274176
250	0x3cb41125	0.021980831
251	0x3caea5d0	0.0213193
252	0x3c87e8aa	0.016590435
253	0x3d3cd9d5	0.04610618
254	0x3b25a17d	0.0025273256
255	0xbd1cfcfe	-0.03832721

encoder_lstm.weight_hh_l1 f4 [256, 64]
0	0xbd2b8dbe	-0.041883223
1	0xbc9c7cad	-0.019102419
2	0xbdb0aaba	-0.086263135
3	0xbccb5693	-0.024821555
4	0x3d0f0a6e	0.034922056
5	0x3c4aedec	0.012385827
6	0x3d24c03a	0.040222384
7	0xbd994f36	-0.074858114
8	0x3da020d6	0.07818763
9	0xbdb816f1	-0.08988751
10	0x3cf1209a	0.029434491
11	0xbd3d43f7	-0.046207394
12	0x3dc72512	0.097238675
13	0xbbc67e27	-0.006057519
14	0xbc849f10	-0.016189128
15	0xbe1f6dac	-0.1556918
16	0x3cb683e1	0.022279682
17	0x3d985878	0.07438749
18	0xbe097513	-0.13423567
19	0x3c2b88e1	0.010469646
20	0xbc2281d6	-0.009918651
21	0x3d1adb30	0.03780669
22	0xbdbb2533	-0.091379546
23	0xbc97a608	-0.018511787
24	0xbcabef97	-0.020988269
25	0xbc8bd897	-0.017071052
26	0x3c369034	0.011142779
27	0xbe12017f	-0.14258383
28	0xbd58011f	-0.052735444
29	0xbc8d3bd3	-0.01724044
30	0x3e1f48e5	0.15555151
31	0x3d398c1a	0.045299627
32	0xbd9768d8	-0.07393044
33	0x3c13ff7b	0.009033079
34	0xbcc3868a	-0.023867864
35	0x3d1dd959	0.038537357
36	0x3b5c4e7f	0.0033616123
37	0xbd057624	-0.03258337
38	0x3d112ee7	0.03544512
39	0xbcad6361	-0.021165552
40	0x3d272100	0.040802956
41	0xbd7462b6	-0.05966445
42	0x3dd238fa	0.10264774
43	0xbdab3e9e	-0.08361553
44	0x3da0869a	0.07838173
45	0xbcfcc72b	-0.03085669
46	0x3d57c9ec	0.052682802
47	0xbd0db3bc	-0.034595236
48	0xbd04020e	-0.032228522
49	0xbcbdeb30	-0.023183435
50	0x3cd631e7	0.026146842
51	0xbdb5a472	-0.08869256
52	0x3dedfbba	0.11620279
53	0x3ccc51d3	0.02494136
54	0xbcf20dee	-0.029547658
55	0x3dcd6e8d	0.100308515
56	0xb8ba13db	-8.8728695e-05
57	0xbd6736b3	-0.05644865
58	0xbd94f957	-0.0727412
59	0x3cdda830	0.027057737
60	0x3dc668cc	0.09687957
61	0x3d8baf53	0.0682055
62	0x3db5255c	0.08845016
63	0xbd5ab2ec	-0.05339329
64	0xbc40568c	-0.011739384
65	0x3e053eb2	0.13012198
66	0xbcc2b39f	-0.02376729
67	0xbd91f8a0	-0.071274996
68	0x3dd237d2	0.10264553
69	0xbd4443d4	-0.04791625
70	0xbd708dfa	-0.05872915
71	0xbcc37cd0	-0.023863226
72	0xbd802764	-0.06257513
73	0xbd1239b0	-0.035699546
74	0x3c7b66b1	0.015344308
75	0x3e0bb14d	0.13641854
76	0xbb39eb17	-0.0028368884
77	0x3dfaed87	0.12252336
78	0xbe173c88	-0.14769185
79	0x3d8b6dfa	0.06808086
80	0x3d7a4a6f	0.06110614
81	0x3da73d76	0.081660196
82	0xbd62adf5	-0.05534168
83	0xbdaab6a9	-0.08335621
84	0x3e177e23	0.14794211
85	0x3e30739e	0.17231604
86	0x3e1fa5eb	0.15590636
87	0x3da678c6	0.081285045
88	0x3e1d1d53	0.15343218
89	0xbd40f0a5	-0.047104497
90	0x3d785adc	0.060633525
91	0xbd2da79e	-0.04239618
92	0x3df43fa5	0.11926202
93	0x3d4a3cf2	0.04937453
94	0xbd4b56dd	-0.049643386
95	0x3dab9765	0.083784856
96	0x3b7fa450	0.003900785
97	0x3d74236b	0.05960409
98	0xbd31bb32	-0.043391414
99	0xbd46cff3	-0.04853816
100	0x3c1b76bb	0.009488757
101	0x3d55acb1	0.052166644
102	0x3dfb54ea	0.122720554
103	0xbdb297d4	-0.08720365
104	0x3c14ab30	0.009074017
105	0x3ddd3bc2	0.108024135
106	0x3c74f069	0.014949896
107	0xbcc544f4	-0.024080731
108	0xbdcd0fc2	-0.10012771
109	0x3e04928f	0.12946533
110	0xbd32e012	-0.04367072
111	0xbda82fb0	-0.08212221
112	0x3d7aa4f0	0.061192453
113	0x3df0c30d	0.11755953
114	0x3e17ac5a	0.1481184
115	0xbd784634	-0.060613826
116	0x3c9c3380	0.019067526
117	0xbd7bf22c	-0.06151025
118	0x3b5e192d	0.0033889518
119	0xbd6e5327	-0.05818477
120	0x3df0352a	0.1172889
121	0x3c2c096b	0.010500292
122	0x3e1fc6b5	0.15603144
123	0xbd3f7cf5	-0.046750028
124	0xbcb4e6a6	-0.022082638
125	0xbdc346cc	-0.09534988
126	0x3e049c2b	0.12950198
127	0x3e435bf1	0.19078042
128	0xbe3107df	-0.17288159
129	0x3e24297a	0.16031447
130	0xbc5667bc	-0.013086256
131	0x3decdc67	0.11565476
132	0x3dd2ca25	0.10292462
133	0x3db0e229	0.086368866
134	0xbd055f11	-0.032561366
135	0x3d17a48b	0.037022155
136	0x3e0eb25e	0.13935229
137	0x3e0447c8	0.12918007
138	0xbdfcdb7d	-0.123465516
139	0x3e1fc0c8	0.15600884
140	0xbe2ad563	-0.16682963
141	0xbce74cfc	-0.028234951
142	0xbc9ec600	-0.019381523
143	0xbcce69a6	-0.025196861
144	0x3cbd42dc	0.02310317
145	0x3e335869	0.17514195
146	0xbd58e351	-0.05295116
147	0x3d1a055e	0.037602775
148	0x3e424806	0.18972787
149	0x3e08391b	0.13303034
150	0x3dee8445	0.11646322
151	0x3e0b4142	0.13599113
152	0x3dfb4fdb	0.122710906
153	0x3dfc4ed2	0.12319721
154	0xbd328bde	-0.04359042
155	0xbccc8cbe	-0.024969455
156	0xbd318bf2	-0.043346353
157	0xbd35faaf	-0.044428524
158	0xbb2c7cd2	-0.0026319516
159	0x3dee27da	0.11628695
160	0x3d82f946	0.063952014
161	0xbde79ce0	-0.113092184
162	0xbe3cdb77	-0.18443094
163	0xbd9a3d82	-0.07531263
164	0x3e11ac95	0.14225991
165	0xbdb18944	-0.086687595
166	0x3d13ba09	0.03606609
167	0x3e0ea804	0.1393128
168	0xbe28f0b3	-0.1649807
169	0xbd76362d	-0.06011026
170	0xbc94642a	-0.018114168
171	0x3c56252f	0.013070389
172	0xbe3d5f16	-0.18493304
173	0x3e011383	0.126051
174	0x3d0df671	0.034658853
175	0xbdcc06b9	-0.0996222
176	0x3d351f67	0.0442194
177	0xbd29e0c3	-0.041474115
178	0xbd0cc3f4	-0.034366563
179	0xbc28685f	-0.01027879
180	0xbe064291	-0.1311133
181	0xbd43f82c	-0.047844097
182	0xbd9c27fc	-0.07624814
183	0xbc36239a	-0.0111168865
184	0x3e06456f	0.13112424
185	0xbaae4b3c	-0.0013297568
186	0x3e6d6313	0.23182325
187	0xbde11f25	-0.109922685
188	0x3e2438cb	0.1603729
189	0x3de152b8	0.110021055
190	0x3e33e4f5	0.17567809
191	0x3d774485	0.06036808
192	0xbde43559	-0.11142988
193	0xbcc9e1f3	-0.024643874
194	0x3ba679e3	0.005080448
195	0x3da52174	0.08063021
196	0x3e0f271a	0.1397976
197	0x3a1c714c	0.000596781
198	0x3c9e07e6	0.019290876
199	0xbe327347	-0.17426787
200	0x3e471a1e	0.19443557
201	0x3e2ff57d	0.1718349
202	0x3ca1e408	0.019762054
203	0x3e066020	0.13122606
204	0x3d24afb8	0.04020664
205	0x3e07568a	0.13216606
206	0xbb8b4331	-0.004249953
207	0x3c9149b1	0.017735334
208	0x3d03a955	0.03214391
209	0x3df3f971	0.119128115
210	0xbd343669	-0.043997202
211	0xbdb74b45	-0.089499034
212	0x3d048e51	0.032362286
213	0x3d5d5708	0.054038078
214	0xbd7a6418	-0.061130613
215	0x3da56079	0.08075041
216	0x3dfe7f2d	0.124266006
217	0xbbe35768	-0.00693791
218	0xbcb86cf6	-0.022512894
219	0x3e3f14e2	0.1866031
220	0x3dfc85f7	0.12330239
221	0xbce0dcee	-0.027449097
222	0xbca0576c	-0.019572936
223	0x3d0d0554	0.03442891
224	0x3d02db95	0.03194769
225	0x3d53129f	0.05153143
226	0xbd8eaa28	-0.069660485
227	0xbdf37c74	-0.11888972
228	0xbe2bf9b8	-0.16794479
229	0xbdac41e4	-0.08411005
230	0x3b860d01	0.0040909057
231	0x3dbca4f3	0.09211149
232	0xba3ae9e6	-0.00071301905
233	0x3b621300	0.0034496188
234	0x3caad8c1	0.02085531
235	0xbd0b5c97	-0.034023847
236	0x3d059876	0.0326161
237	0x3c1a0239	0.009399944
238	0xbe2adf05	-0.16686638
239	0x3c0dceb1	0.008655236
240	0xbd732423	-0.059360635
241	0x3dddea26	0.10835676
242	0xbd7f6317	-0.06235036
243	0xbb76224e	-0.0037557068
244	0xbd993720	-0.074812174
245	0x3d3b34af	0.04570454
246	0x3b832fb1	0.004003488
247	0xbd6b1aa1	-0.057398442
248	0x3d5bca8f	0.05365997
249	0x3e02bdf6	0.12767777
250	0xbde3a07b	-0.111145936
251	0xba524c9b	-0.00080222794
252	0x3d9abd61	0.075556524
253	0x3d37cbb6	0.04487201
254	0x3e06d4e5	0.1316715
255	0x3d058cdd	0.03260504

encoder_lstm.bias_ih_l1 f4 [256]
0	0x3d472d80	0.048627377
1	0xbdc5e0c0	-0.09662008
2	0xbe2d31cf	-0.16913532
3	0xbcaa43e6	-0.02078433
4	0xbe3c46c0	-0.18386364
5	0x3c093bf8	0.008376114
6	0x3d3b2898	0.04569301
7	0x3d997424	0.07492855
8	0x3d38b97f	0.045098778
9	0x3dcd5473	0.10025873
10	0xbccc185b	-0.024913957
11	0x3e0528f1	0.13003899
12	0x3c0a50c0	0.008442104
13	0xbd8fe8c5	-0.07026819
14	0x3e0a4585	0.13503082
15	0xbe0a57ff	-0.1351013
16	0xbde9183e	-0.11381577
17	0x3e00516b	0.12531058
18	0x3d3eabd4	0.046550587
19	0xbcd4a071	-0.02595541
20	0xbdfaf168	-0.12253076
21	0x3e13a816	0.14419588
22	0xbe7677e9	-0.2406918
23	0x3d9130eb	0.070894085
24	0x3dedbd43	0.116083644
25	0xbdcce89f	-0.100053065
26	0xbd82ff41	-0.06396342
27	0xbe0ab3b1	-0.1354511
28	0xbdc7f685	-0.09763817
29	0xbdc314aa	-0.09525426
30	0xbd703d36	-0.058652125
31	0x3c15bd1c	0.0091393255
32	0x3d013369	0.03154317
33	0xbca9115b	-0.020638159
34	0x3d915eff	0.07098197
35	0xbd02b2fc	-0.031908974
36	0x3d4b7ff9	0.04968259
37	0x3cc1b1df	0.023644386
38	0xbe12c6f7	-0.14333712
39	0xbd903524	-0.07041386
40	0x3d4c8d66	0.049939536
41	0xbd32ba13	-0.043634485
42	0xbdac14de	-0.084024176
43	0xbd51b549	-0.051198278
44	0x3d3cc3b0	0.04608506
45	0xbd8f6de5	-0.070033826
46	0x3da9b019	0.08285541
47	0x3e06b775	0.13155921
48	0xbe0cf627	-0.13765775
49	0xbdc3a585	-0.09553055
50	0xbe0b244d	-0.13588066
51	0x3dc27597	0.09495085
52	0x3df81437	0.12113231
53	0x3d773dfd	0.06036185
54	0xbc875871	-0.016521664
55	0xbd967e4d	-0.07348309
56	0x3d1997c8	0.037498266
57	0x3e1a83b6	0.15089306
58	0x3c9cae93	0.019126212
59	0xbe1c768c	-0.15279597
60	0x3da378fc	0.0798206
61	0xbdcfa99d	-0.10139773
62	0xbdaab4ad	-0.083352424
63	0xbdac880f	-0.084243886
64	0x3d842dba	0.06454034
65	0x3c1c656c	0.009545665
66	0x3d087219	0.033311937
67	0x3c0e3cfe	0.008681534
68	0xbd012384	-0.03152801
69	0xbda5f5bd	-0.081035115
70	0xbd9cd9eb	-0.07658752
71	0x3d89085c	0.066910475
72	0x3da25aa5	0.07927445
73	0x3bf30a07	0.007416967
74	0x3d711e42	0.058866747
75	0x3e086d17	0.13322864
76	0xbcd73491	-0.026270183
77	0x3cbb8648	0.022891179
78	0x3e10087a	0.14065734
79	0xbdf1609f	-0.11786007
80	0xbdece184	-0.11566451
81	0xbdb3892a	-0.08766396
82	0xbe166bfd	-0.14689632
83	0xbe450845	-0.19241436
84	0xbe32ce81	-0.17461587
85	0xbda682d4	-0.08130422
86	0xbe404ed7	-0.18780075
87	0x3d18da20	0.037317395
88	0x3d260040	0.040527582
89	0xbdd36dc6	-0.10323672
90	0xbd6e3364	-0.05815448
91	0x3dad8c51	0.08474029
92	0x3d717d0c	0.058957145
93	0xbe15ddbd	-0.14635368
94	0xbcc0fe37	-0.02355872
95	0xbde962cf	-0.11395799
96	0xbcaeb7a7	-0.021327807
97	0xbd1e0848	-0.038582116
98	0xbd632110	-0.055451453
99	0x3d04628b	0.03232054
100	0xbdd1aaad	-0.10237632
101	0xbcbdf61a	-0.02318864
102	0xbdd61ff0	-0.1045531
103	0x3dd86abe	0.105672345
104	0xbdca7479	-0.09885497
105	0x3d5116ae	0.05104702
106	0xbb6b8061	-0.0035934674
107	0xbb190e55	-0.002335449
108	0x3daee5b5	0.08539907
109	0xbd06abec	-0.0328788
110	0xbddf1e5b	-0.10894462
111	0x3dd1ac94	0.10237995
112	0xbd4b7947	-0.049676206
113	0x3cbd87a7	0.023135973
114	0x3b478210	0.0030442514
115	0xbdc5f10c	-0.09665117
116	0x3df9824b	0.121830545
117	0x3c2ecb21	0.010668547
118	0xbd9e0e89	-0.07717616
119	0xbda13d61	-0.07873035
120	0x3dad24ce	0.084542856
121	0x3d8486c1	0.06471015
122	0xbd2c1845	-0.042015333
123	0xbd95871d	-0.073011614
124	0xbd9f1177	-0.07767003
125	0x3c73d811	0.014883057
126	0xbc728b6c	-0.014803749
127	0x3d9c00e4	0.076173574
128	0x3e2a2586	0.16615877
129	0xbc83ed37	-0.016104324
130	0xbcf89376	-0.030343752
131	0x3d9b319f	0.07577824
132	0xbb34bc58	-0.0027578082
133	0x3be9bc1f	0.0071330215
134	0xbd14f710	-0.03636843
135	0x3d8db048	0.069183886
136	0xbd4f47ee	-0.050605707
137	0xbdd433bd	-0.10361431
138	0x3dd20471	0.102547534
139	0xbe3ca951	-0.18423964
140	0x3d6bb3cc	0.057544515
141	0xbd9b5996	-0.075854465
142	0x3e1a3ef2	0.15063074
143	0xbe0a1d0c	-0.13487643
144	0xbe02cb20	-0.12772799
145	0xbe1b71fc	-0.151802
146	0x3d82318f	0.06357109
147	0x3c80013e	0.015625592
148	0xbcfa9c93	-0.030592239
149	0xbdf6d4bd	-0.12052295
150	0xbdb18e6e	-0.086697444
151	0xbe366bf4	-0.17814618
152	0xbe3d3b88	-0.1847974
153	0x3e1295c1	0.14314939
154	0x3e4fdba4	0.2029863
155	0xbe28df26	-0.16491374
156	0xbe27953c	-0.16365522
157	0x3d92aa21	0.07161356
158	0xbd0a028d	-0.03369384
159	0xbd1d05fa	-0.038335778
160	0xbd8def24	-0.06930378
161	0xbcd8641d	-0.026414925
162	0x3dab3f57	0.083616905
163	0x3d7af012	0.061264105
164	0xbc7b3b13	-0.015333909
165	0xbda84fcb	-0.08218344
166	0x3def9954	0.11699167
167	0xbd6b0049	-0.05737332
168	0x3e0824f4	0.13295346
169	0xbe53e3c3	-0.20692353
170	0x3dbab8cb	0.09117278
171	0x3d298357	0.04138502
172	0x3d9ecdfc	0.07754132
173	0xbd98d6e0	-0.07462859
174	0x3dcefb47	0.10106521
175	0x3df98ed6	0.12185447
176	0xbd211d18	-0.039334387
177	0xbe2610e9	-0.16217388
178	0x3d815f9c	0.06317064
179	0xbdb4034d	-0.08789692
180	0x3e0aaffc	0.13543695
181	0x3dbe7def	0.09301364
182	0x3e20b0ab	0.15692393
183	0xbe042398	-0.12904203
184	0xbdb3899e	-0.08766483
185	0xbe0322e1	-0.12806274
186	0xbde81a07	-0.11333089
187	0x3d9289ee	0.07155214
188	0xbe160a9e	-0.14652488
189	0x3d5f5654	0.05452569
190	0xbe4e5658	-0.20150125
191	0xbd84edde	-0.06490682
192	0x3d80ce9d	0.06289408
193	0xbdea7de2	-0.114497915
194	0x3c633b33	0.013869095
195	0x3c65be28	0.014022388
196	0xbccae490	-0.02476719
197	0x3d00a776	0.031409703
198	0xbda464ec	-0.08027062
199	0x3deedf48	0.11663681
200	0x3d2bdc27	0.041958
201	0x3d338dbe	0.043836348
202	0xbde316fd	-0.11088369
203	0x3d27a543	0.04092909
204	0x3e0ea1c9	0.13928904
205	0x3d8039c9	0.06261022
206	0x3dc6d2e5	0.09708194
207	0x3d62eb30	0.055400074
208	0xbda85ca3	-0.08220794
209	0x3dbbba79	0.09166426
210	0xbdc94351	-0.09827293
211	0xbb86c25a	-0.004112524
212	0x3e454a51	0.1926663
213	0xbdda9e7c	-0.1067476
214	0x3d0f9341	0.03505254
215	0x3d661f56	0.056182228
216	0x3dd0d5dc	0.101970404
217	0x3caa39fd	0.020779604
218	0x3db08cae	0.086205825
219	0xbd3185b5	-0.043340404
220	0x3d72607b	0.059174042
221	0xbdf4a382	-0.11945249
222	0xbdf3b5b5	-0.11899892
223	0xbd85fab8	-0.065419614
224	0x3d5d9bb7	0.05410358
225	0xbb913547	-0.0044314
226	0x3de1d9d3	0.11027875
227	0xbd806b8e	-0.062705144
228	0xbd7b0d10	-0.061291754
229	0x3d0484bf	0.03235316
230	0xbe2f26e7	-0.17104684
231	0x3d8aa065	0.06768874
232	0xbdf170d1	-0.11789096
233	0xbda97e93	-0.08276095
234	0xbd622f4a	-0.05522088
235	0xbde6df93	-0.11273112
236	0xbd695328	-0.05696407
237	0x3dc7ca2a	0.097553566
238	0xbe133a9b	-0.14377825
239	0xbc0c5373	-0.008564818
240	0x3d056fb9	0.03257725
241	0x3b8e8520	0.004349366
242	0xbca779c3	-0.020443803
243	0xbd80a23c	-0.06280944
244	0x3df1d6f2	0.11808576
245	0xbdaa750b	-0.083231054
246	0xbcfca7de	-0.030841764
247	0xbdfb9b24	-0.1228545
248	0xbdddef5e	-0.10836671
249	0x3cb251ce	0.021767523
250	0x3d46dbcf	0.04854947
251	0xbdb4f05d	-0.08834908
252	0xbcbe9a87	-0.023267044
253	0xbc9f624c	-0.019456051
254	0x3cb103c6	0.021608245
255	0x3d9be4b0	0.07611978
